…
, nbs=64, hsv_h=0.015, hsv_s=0.7, hsv_v=0.4, degrees=0.0, translate=0.1, scale=0.5, shear=0.0, perspective=0.0, flipud=0.0, fliplr=0.5, bgr=0.0, mosaic=1.0, mixup=0.1, copy_paste=0.1, copy_paste_mode=flip, auto_augment=randaugment, erasing=0.4, crop_fraction=1.0, cfg=None, tracker=botsort.yaml, save_dir=runs/lscd_segmentation_20260510140818
Overriding model.yaml nc=80 with nc=4
WARNING ⚠️ no model scale passed. Assuming scale='n'.

                   from  n    params  module                                       arguments                     
  0                  -1  1       544  ultralytics.nn.modules.conv.RepConv          [3, 16, 3, 2]                 
  1                  -1  1      3936  ultralytics.nn.modules.conv.RepConv          [16, 24, 3, 2]                
  2                  -1  1      7854  ultralytics.nn.modules.block.CheapC1         [24, 24, 1, 'UIB', 'CheapConv']
  3                  -1  1     11712  ultralytics.nn.modules.conv.RepConv          [24, 48, 3, 2]                
  4                  -1  1     28830  ultralytics.nn.modules.block.CheapC1         [48, 48, 1, 'UIB', 'CheapConv']
  5                  -1  1     46464  ultralytics.nn.modules.conv.RepConv          [48, 96, 3, 2]                
  6                  -1  3    311628  ultralytics.nn.modules.block.CheapC1         [96, 96, 3, 'UIB', 'CheapConv']
  7                  -1  1    185088  ultralytics.nn.modules.conv.RepConv          [96, 192, 3, 2]               
  8                  -1  1    430248  ultralytics.nn.modules.block.CheapC1         [192, 192, 1, 'UIB', 'CheapConv']
  9                  -1  1     92736  ultralytics.nn.modules.block.SPPF            [192, 192, 5]                 
 10                  -1  1         0  torch.nn.modules.upsampling.Upsample         [None, 2, 'nearest']          
 11             [-1, 6]  1         0  ultralytics.nn.modules.conv.Concat           [1]                           
 12                  -1  1    128580  ultralytics.nn.modules.block.CheapC1         [288, 96, 1, 'UIB', 'CheapConv']
 13                  -1  1         0  torch.nn.modules.upsampling.Upsample         [None, 2, 'nearest']          
 14             [-1, 4]  1         0  ultralytics.nn.modules.conv.Concat           [1]                           
 15                  -1  1     33438  ultralytics.nn.modules.block.CheapC1         [144, 48, 1, 'UIB', 'CheapConv']
 16                  -1  1     23232  ultralytics.nn.modules.conv.RepConv          [48, 48, 3, 2]                
 17            [-1, 12]  1         0  ultralytics.nn.modules.conv.Concat           [1]                           
 18                  -1  1    114756  ultralytics.nn.modules.block.CheapC1         [144, 96, 1, 'UIB', 'CheapConv']
 19                  -1  1     92544  ultralytics.nn.modules.conv.RepConv          [96, 96, 3, 2]                
 20             [-1, 9]  1         0  ultralytics.nn.modules.conv.Concat           [1]                           
 21                  -1  1    448680  ultralytics.nn.modules.block.CheapC1         [288, 192, 1, 'UIB', 'CheapConv']
 22        [15, 18, 21]  1    737212  ultralytics.nn.modules.head.Segment          [4, 32, 64, [48, 96, 192]]    
YOLOv8-seg-cheap summary: 440 layers, 2,697,482 parameters, 2,697,466 gradients, 10.6 GFLOPs

Freezing layer 'model.22.dfl.conv.weight'
[34m[1mAMP: [0mrunning Automatic Mixed Precision (AMP) checks...
[34m[1mAMP: [0mchecks passed ✅
[34m[1mval: [0mWARNING ⚠️ /root/pack/YOLO/coco_style_fourclass/yolo_dataset_seg/images/val/w (73).jpg: corrupt JPEG restored and saved
…
